…
[2023-06-28 02:22:24] [INFO] Using Single-GPU mode.
[2023-06-28 02:22:26] [INFO] Data loader created: 1.421s collapsed.
[2023-06-28 02:22:26] [INFO] Calibrate neighbors: [38 35 35 38].
[2023-06-28 02:22:27] [INFO] Model description:
GeoTransformer(
  (backbone): KPConvFPN(
    (encoder1_1): ConvBlock(
      (KPConv): KPConv(kernel_size: 15, in_channels: 1, out_channels: 64, radius: 0.0625, sigma: 0.05, bias: True)
      (norm): GroupNorm(
        (norm): GroupNorm(32, 64, eps=1e-05, affine=True)
      )
      (leaky_relu): LeakyReLU(negative_slope=0.1)
    )
    (encoder1_2): ResidualBlock(
      (unary1): UnaryBlock(
        (mlp): Linear(in_features=64, out_features=32, bias=True)
        (norm): GroupNorm(
          (norm): GroupNorm(32, 32, eps=1e-05, affine=True)
        )
        (leaky_relu): LeakyReLU(negative_slope=0.1)
      )
      (KPConv): KPConv(kernel_size: 15, in_channels: 32, out_channels: 32, radius: 0.0625, sigma: 0.05, bias: True)
      (norm_conv): GroupNorm(
        (norm): GroupNorm(32, 32, eps=1e-05, affine=True)
      )
      (unary2): UnaryBlock(
        (mlp): Linear(in_features=32, out_features=128, bias=True)
        (norm): GroupNorm(
          (norm): GroupNorm(32, 128, eps=1e-05, affine=True)
        )
      )
      (unary_shortcut): UnaryBlock(
        (mlp): Linear(in_features=64, out_features=128, bias=True)
        (norm): GroupNorm(
          (norm): GroupNorm(32, 128, eps=1e-05, affine=True)
        )
      )
      (leaky_relu): LeakyReLU(negative_slope=0.1)
    )
    (encoder2_1): ResidualBlock(
      (unary1): UnaryBlock(
        (mlp): Linear(in_features=128, out_features=32, bias=True)
        (norm): GroupNorm(
          (norm): GroupNorm(32, 32, eps=1e-05, affine=True)
        )
        (leaky_relu): LeakyReLU(negative_slope=0.1)
      )
      (KPConv): KPConv(kernel_size: 15, in_channels: 32, out_channels: 32, radius: 0.0625, sigma: 0.05, bias: True)
      (norm_conv): GroupNorm(
        (norm): GroupNorm(32, 32, eps=1e-05, affine=True)
      )
      (unary2): UnaryBlock(
        (mlp): Linear(in_features=32, out_features=128, bias=True)
        (norm): GroupNorm(
          (norm): GroupNorm(32, 128, eps=1e-05, affine=True)
        )
      )
      (unary_shortcut): Identity()
      (leaky_relu): LeakyReLU(negative_slope=0.1)
    )
    (encoder2_2): ResidualBlock(
      (unary1): UnaryBlock(
        (mlp): Linear(in_features=128, out_features=64, bias=True)
        (norm): GroupNorm(
          (norm): GroupNorm(32, 64, eps=1e-05, affine=True)
        )
        (leaky_relu): LeakyReLU(negative_slope=0.1)
      )
      (KPConv): KPConv(kernel_size: 15, in_channels: 64, out_channels: 64, radius: 0.125, sigma: 0.1, bias: True)
      (norm_conv): GroupNorm(
        (norm): GroupNorm(32, 64, eps=1e-05, affine=True)
      )
      (unary2): UnaryBlock(
        (mlp): Linear(in_features=64, out_features=256, bias=True)
        (norm): GroupNorm(
          (norm): GroupNorm(32, 256, eps=1e-05, affine=True)
        )
      )
      (unary_shortcut): UnaryBlock(
        (mlp): Linear(in_features=128, out_features=256, bias=True)
        (norm): GroupNorm(
          (norm): GroupNorm(32, 256, eps=1e-05, affine=True)
        )
      )
      (leaky_relu): LeakyReLU(negative_slope=0.1)
    )
    (encoder2_3): ResidualBlock(
      (unary1): UnaryBlock(
        (mlp): Linear(in_features=256, out_features=64, bias=True)
        (norm): GroupNorm(
          (norm): GroupNorm(32, 64, eps=1e-05, affine=True)
        )
        (leaky_relu): LeakyReLU(negative_slope=0.1)
      )
      (KPConv): KPConv(kernel_size: 15, in_channels: 64, out_channels: 64, radius: 0.125, sigma: 0.1, bias: True)
      (norm_conv): GroupNorm(
        (norm): GroupNorm(32, 64, eps=1e-05, affine=True)
      )
      (unary2): UnaryBlock(
        (mlp): Linear(in_features=64, out_features=256, bias=True)
        (norm): GroupNorm(
          (norm): GroupNorm(32, 256, eps=1e-05, affine=True)
        )
      )
      (unary_shortcut): Identity()
      (leaky_relu): LeakyReLU(negative_slope=0.1)
    )
    (encoder3_1): ResidualBlock(
      (unary1): UnaryBlock(
        (mlp): Linear(in_features=256, out_features=64, bias=True)
        (norm): GroupNorm(
          (norm): GroupNorm(32, 64, eps=1e-05, affine=True)
        )
        (leaky_relu): LeakyReLU(negative_slope=0.1)
      )
      (KPConv): KPConv(kernel_size: 15, in_channels: 64, out_channels: 64, radius: 0.125, sigma: 0.1, bias: True)
      (norm_conv): GroupNorm(
        (norm): GroupNorm(32, 64, eps=1e-05, affine=True)
      )
      (unary2): UnaryBlock(
        (mlp): Linear(in_features=64, out_features=256, bias=True)
        (norm): GroupNorm(
          (norm): GroupNorm(32, 256, eps=1e-05, affine=True)
        )
      )
      (unary_shortcut): Identity()
      (leaky_relu): LeakyReLU(negative_slope=0.1)
    )
    (encoder3_2): ResidualBlock(
      (unary1): UnaryBlock(
        (mlp): Linear(in_features=256, out_features=128, bias=True)
        (norm): GroupNorm(
          (norm): GroupNorm(32, 128, eps=1e-05, affine=True)
        )
        (leaky_relu): LeakyReLU(negative_slope=0.1)
      )
      (KPConv): KPConv(kernel_size: 15, in_channels: 128, out_channels: 128, radius: 0.25, sigma: 0.2, bias: True)
      (norm_conv): GroupNorm(
        (norm): GroupNorm(32, 128, eps=1e-05, affine=True)
      )
      (unary2): UnaryBlock(
        (mlp): Linear(in_features=128, out_features=512, bias=True)
        (norm): GroupNorm(
          (norm): GroupNorm(32, 512, eps=1e-05, affine=True)
        )
      )
      (unary_shortcut): UnaryBlock(
        (mlp): Linear(in_features=256, out_features=512, bias=True)
        (norm): GroupNorm(
          (norm): GroupNorm(32, 512, eps=1e-05, affine=True)
        )
      )
      (leaky_relu): LeakyReLU(negative_slope=0.1)
    )
    (encoder3_3): ResidualBlock(
      (unary1): UnaryBlock(
        (mlp): Linear(in_features=512, out_features=128, bias=True)
        (norm): GroupNorm(
          (norm): GroupNorm(32, 128, eps=1e-05, affine=True)
        )
        (leaky_relu): LeakyReLU(negative_slope=0.1)
      )
      (KPConv): KPConv(kernel_size: 15, in_channels: 128, out_channels: 128, radius: 0.25, sigma: 0.2, bias: True)
      (norm_conv): GroupNorm(
        (norm): GroupNorm(32, 128, eps=1e-05, affine=True)
      )
      (unary2): UnaryBlock(
        (mlp): Linear(in_features=128, out_features=512, bias=True)
        (norm): GroupNorm(
          (norm): GroupNorm(32, 512, eps=1e-05, affine=True)
        )
      )
      (unary_shortcut): Identity()
      (leaky_relu): LeakyReLU(negative_slope=0.1)
    )
    (encoder4_1): ResidualBlock(
      (unary1): UnaryBlock(
        (mlp): Linear(in_features=512, out_features=128, bias=True)
        (norm): GroupNorm(
          (norm): GroupNorm(32, 128, eps=1e-05, affine=True)
        )
        (leaky_relu): LeakyReLU(negative_slope=0.1)
      )
      (KPConv): KPConv(kernel_size: 15, in_channels: 128, out_channels: 128, radius: 0.25, sigma: 0.2, bias: True)
      (norm_conv): GroupNorm(
        (norm): GroupNorm(32, 128, eps=1e-05, affine=True)
      )
      (unary2): UnaryBlock(
        (mlp): Linear(in_features=128, out_features=512, bias=True)
        (norm): GroupNorm(
          (norm): GroupNorm(32, 512, eps=1e-05, affine=True)
        )
      )
      (unary_shortcut): Identity()
      (leaky_relu): LeakyReLU(negative_slope=0.1)
    )
    (encoder4_2): ResidualBlock(
      (unary1): UnaryBlock(
        (mlp): Linear(in_features=512, out_features=256, bias=True)
        (norm): GroupNorm(
          (norm): GroupNorm(32, 256, eps=1e-05, affine=True)
        )
        (leaky_relu): LeakyReLU(negative_slope=0.1)
      )
      (KPConv): KPConv(kernel_size: 15, in_channels: 256, out_channels: 256, radius: 0.5, sigma: 0.4, bias: True)
      (norm_conv): GroupNorm(
        (norm): GroupNorm(32, 256, eps=1e-05, affine=True)
      )
      (unary2): UnaryBlock(
        (mlp): Linear(in_features=256, out_features=1024, bias=True)
        (norm): GroupNorm(
          (norm): GroupNorm(32, 1024, eps=1e-05, affine=True)
        )
      )
      (unary_shortcut): UnaryBlock(
        (mlp): Linear(in_features=512, out_features=1024, bias=True)
        (norm): GroupNorm(
          (norm): GroupNorm(32, 1024, eps=1e-05, affine=True)
        )
      )
      (leaky_relu): LeakyReLU(negative_slope=0.1)
    )
    (encoder4_3): ResidualBlock(
      (unary1): UnaryBlock(
        (mlp): Linear(in_features=1024, out_features=256, bias=True)
        (norm): GroupNorm(
          (norm): GroupNorm(32, 256, eps=1e-05, affine=True)
        )
        (leaky_relu): LeakyReLU(negative_slope=0.1)
      )
      (KPConv): KPConv(kernel_size: 15, in_channels: 256, out_channels: 256, radius: 0.5, sigma: 0.4, bias: True)
      (norm_conv): GroupNorm(
        (norm): GroupNorm(32, 256, eps=1e-05, affine=True)
      )
      (unary2): UnaryBlock(
        (mlp): Linear(in_features=256, out_features=1024, bias=True)
        (norm): GroupNorm(
          (norm): GroupNorm(32, 1024, eps=1e-05, affine=True)
        )
      )
      (unary_shortcut): Identity()
      (leaky_relu): LeakyReLU(negative_slope=0.1)
    )
    (decoder3): UnaryBlock(
      (mlp): Linear(in_features=1536, out_features=512, bias=True)
      (norm): GroupNorm(
        (norm): GroupNorm(32, 512, eps=1e-05, affine=True)
      )
      (leaky_relu): LeakyReLU(negative_slope=0.1)
    )
    (decoder2): LastUnaryBlock(
      (mlp): Linear(in_features=768, out_features=256, bias=True)
    )
  )
  (transformer): GeometricTransformer(
    (embedding): GeometricStructureEmbedding(
      (embedding): SinusoidalPositionalEmbedding()
      (proj_d): Linear(in_features=256, out_features=256, bias=True)
      (proj_a): Linear(in_features=256, out_features=256, bias=True)
    )
    (in_proj): Linear(in_features=1024, out_features=256, bias=True)
    (transformer): RPEConditionalTransformer(
      (layers): ModuleList(
        (0): RPETransformerLayer(
          (attention): RPEAttentionLayer(
            (attention): RPEMultiHeadAttention(
              (proj_q): Linear(in_features=256, out_features=256, bias=True)
              (proj_k): Linear(in_features=256, out_features=256, bias=True)
              (proj_v): Linear(in_features=256, out_features=256, bias=True)
              (proj_p): Linear(in_features=256, out_features=256, bias=True)
              (dropout): Identity()
            )
            (linear): Linear(in_features=256, out_features=256, bias=True)
            (dropout): Identity()
            (norm): LayerNorm((256,), eps=1e-05, elementwise_affine=True)
          )
          (output): AttentionOutput(
            (expand): Linear(in_features=256, out_features=512, bias=True)
            (activation): ReLU()
            (squeeze): Linear(in_features=512, out_features=256, bias=True)
            (dropout): Identity()
            (norm): LayerNorm((256,), eps=1e-05, elementwise_affine=True)
          )
        )
        (1): TransformerLayer(
          (attention): AttentionLayer(
            (attention): MultiHeadAttention(
              (proj_q): Linear(in_features=256, out_features=256, bias=True)
              (proj_k): Linear(in_features=256, out_features=256, bias=True)
              (proj_v): Linear(in_features=256, out_features=256, bias=True)
              (dropout): Identity()
            )
            (linear): Linear(in_features=256, out_features=256, bias=True)
            (dropout): Identity()
            (norm): LayerNorm((256,), eps=1e-05, elementwise_affine=True)
          )
          (output): AttentionOutput(
            (expand): Linear(in_features=256, out_features=512, bias=True)
            (activation): ReLU()
            (squeeze): Linear(in_features=512, out_features=256, bias=True)
            (dropout): Identity()
            (norm): LayerNorm((256,), eps=1e-05, elementwise_affine=True)
          )
        )
        (2): RPETransformerLayer(
          (attention): RPEAttentionLayer(
            (attention): RPEMultiHeadAttention(
              (proj_q): Linear(in_features=256, out_features=256, bias=True)
              (proj_k): Linear(in_features=256, out_features=256, bias=True)
              (proj_v): Linear(in_features=256, out_features=256, bias=True)
              (proj_p): Linear(in_features=256, out_features=256, bias=True)
              (dropout): Identity()
            )
            (linear): Linear(in_features=256, out_features=256, bias=True)
            (dropout): Identity()
            (norm): LayerNorm((256,), eps=1e-05, elementwise_affine=True)
          )
          (output): AttentionOutput(
            (expand): Linear(in_features=256, out_features=512, bias=True)
            (activation): ReLU()
            (squeeze): Linear(in_features=512, out_features=256, bias=True)
            (dropout): Identity()
            (norm): LayerNorm((256,), eps=1e-05, elementwise_affine=True)
          )
        )
        (3): TransformerLayer(
          (attention): AttentionLayer(
            (attention): MultiHeadAttention(
              (proj_q): Linear(in_features=256, out_features=256, bias=True)
              (proj_k): Linear(in_features=256, out_features=256, bias=True)
              (proj_v): Linear(in_features=256, out_features=256, bias=True)
              (dropout): Identity()
            )
            (linear): Linear(in_features=256, out_features=256, bias=True)
            (dropout): Identity()
            (norm): LayerNorm((256,), eps=1e-05, elementwise_affine=True)
          )
          (output): AttentionOutput(
            (expand): Linear(in_features=256, out_features=512, bias=True)
            (activation): ReLU()
            (squeeze): Linear(in_features=512, out_features=256, bias=True)
            (dropout): Identity()
            (norm): LayerNorm((256,), eps=1e-05, elementwise_affine=True)
          )
        )
        (4): RPETransformerLayer(
          (attention): RPEAttentionLayer(
            (attention): RPEMultiHeadAttention(
              (proj_q): Linear(in_features=256, out_features=256, bias=True)
              (proj_k): Linear(in_features=256, out_features=256, bias=True)
              (proj_v): Linear(in_features=256, out_features=256, bias=True)
              (proj_p): Linear(in_features=256, out_features=256, bias=True)
              (dropout): Identity()
            )
            (linear): Linear(in_features=256, out_features=256, bias=True)
            (dropout): Identity()
            (norm): LayerNorm((256,), eps=1e-05, elementwise_affine=True)
          )
          (output): AttentionOutput(
            (expand): Linear(in_features=256, out_features=512, bias=True)
            (activation): ReLU()
            (squeeze): Linear(in_features=512, out_features=256, bias=True)
            (dropout): Identity()
            (norm): LayerNorm((256,), eps=1e-05, elementwise_affine=True)
          )
        )
        (5): TransformerLayer(
          (attention): AttentionLayer(
            (attention): MultiHeadAttention(
              (proj_q): Linear(in_features=256, out_features=256, bias=True)
              (proj_k): Linear(in_features=256, out_features=256, bias=True)
              (proj_v): Linear(in_features=256, out_features=256, bias=True)
              (dropout): Identity()
            )
            (linear): Linear(in_features=256, out_features=256, bias=True)
            (dropout): Identity()
            (norm): LayerNorm((256,), eps=1e-05, elementwise_affine=True)
          )
          (output): AttentionOutput(
            (expand): Linear(in_features=256, out_features=512, bias=True)
            (activation): ReLU()
            (squeeze): Linear(in_features=512, out_features=256, bias=True)
            (dropout): Identity()
            (norm): LayerNorm((256,), eps=1e-05, elementwise_affine=True)
          )
        )
      )
    )
    (out_proj): Linear(in_features=256, out_features=256, bias=True)
  )
  (coarse_target): SuperPointTargetGenerator()
  (coarse_matching): SuperPointMatching()
  (fine_matching): LocalGlobalRegistration(
    (procrustes): WeightedProcrustes()
  )
  (optimal_transport): LearnableLogOptimalTransport(num_iterations=100)
)
[2023-06-28 02:22:31] [INFO] Epoch: 1/42, iter: 10/20642, loss: 3.058, c_loss: 1.213, f_loss: 1.845, PIR: 0.041, IR: 0.463, RRE: 79.635, RTE: 2.170, RMSE: 0.977, RR: 0.300, lr: 1.000e-04, time: 0.401s/0.284s
